mit_stats/mnist/part2-mnist/mnist_model_fully_connected.pt (torch, 906544 bytes, 8 tensors)

weight f4 [32, 1, 3, 3]
00000000: 8a11 803e 4ba4 6fbd fae5 46bf ee39 3c3e
00000010: 05fa 5e3f 3c44 4e3e 4aa8 27bf 5395 a93e
00000020: ee78 3a3d 7030 f8be c1eb 923e ca72 0b3e
00000030: 9bcc 96be 1273 e03d 06e6 963e d007 c9be
00000040: 4c70 643e ca9a a93e a07e 95be ad23 28be
00000050: a979 5dbe b621 c6be 1ae6 92be 9bec 27bc
00000060: 3843 70be 3c65 933e db3d cc3e 44a7 34be
00000070: eab2 9abe 50f8 e93c ee76 7f3c bced 193e
00000080: 9015 633d 7caa 92be 7cfa 7d3c 48fa b43e
00000090: 963a 3f3e fcee e23e 27dd 26bd 2c28 9c3a
000000a0: 4928 aebd fb07 12bf 2039 bc3e 77e2 cdbd
000000b0: ca71 3ebc d76c 9e3d 9bed efbe 7c89 8cbe
000000c0: d7eb 973e c1eb 0cbf 3c23 fdbe 55be 3b3f
000000d0: 8238 0f3f 501a b13e 0d6f 67be d475 2abf
000000e0: 327a bebe 9928 c4be 5d13 843c 7d43 253f
000000f0: f0c6 213f 38cc 0d3f 0327 3fbe 363d 273e
00000100: c2a8 c2be f7fb 38be 509e aa3e 8172 0bbe
00000110: 51a4 283e a181 713e 6d59 b7bd a1d1 133e
00000120: 0f6f d73e 889b 8fbe 1a31 30bf 4a51 863e
00000130: 6349 bb3e 2022 8fbc ad6f e0bc 483b 9c3e
00000140: bcf5 263e 45c2 62be d1a3 3d3e 0310 4dbe
00000150: 972b 053e 7ad1 343d 6ac4 21bf e904 d23e
00000160: 0525 f63e 6be8 dabe 900f 84bd 000a 073e
00000170: 51ec 7dbd 1f5c 69bd 6cdd 61be b9e4 613e
00000180: 0522 a1be e4c1 833e 25a2 5ebd 07c1 3a3c
00000190: cd5a cebe a79d 6bbe fb65 fabe af1e b3bd
000001a0: b52c a3be ad21 93be d67e ddbd 9588 68bd
000001b0: 6d11 d7bd f576 48be be7f d4bd 9a2c 62be
000001c0: 793b bbbe a196 a0be 6c4b 9c3e b1ea d53d
000001d0: 9a16 96be 5b6d 8b3e 2f00 b8bd b8b0 edbe
000001e0: ae84 66be 2eb9 36be f847 8dbe 6185 e83e
000001f0: fce8 e63d 8b07 013f 0106 7bbe f77c 84be
00000200: 2bd9 c23d 13c0 043f 9e89 fc3e 6fc8 d43e
00000210: 0e4b 82be aad3 a8be 15dd f3be 0376 efbe
00000220: d60b 0dbf 7bdd b4be d677 97bc 8ea4 5e3e
00000230: 5317 633e 242a 86bc 379e bd3e 734c 2b3e
00000240: f73f 07bf 6ddb 2f3e 4b89 e63e c6e4 22bf
00000250: 8ce2 8c3e 11cf be3e 6e9b e6be b8f6 533e
00000260: c389 b83c 87d9 24bf c099 f93e 9c48 e13e
00000270: 3b8b 003d b427 803f cfbf cfbe 43b1 0d3f
00000280: 0fa9 cd3e 7298 56bf d5c6 523f 2ff2 ec3e
00000290: 3af6 1b3f 13ed 39be bfd4 bd3e ad46 febc
000002a0: 50e6 58bf 2d02 7cbf 8522 57be 2638 f83d
000002b0: 27b6 8b3c 4e0d 4abc 1a44 5ebe 7dc1 1cbe
000002c0: 791e a3be a0a3 89be e3b8 85be d656 263e
000002d0: 2c15 2d3f d807 1f3f 64d0 9abe de0e e93e
000002e0: 2589 02bf 0a60 10bf 125b 2ebe a27f dabe
000002f0: eafa e5bd e34c 8c3e 31b4 3c3d 4fe1 bfbe
00000300: 3ad8 da3e 25fe 80be 10d5 58be 6ee6 433e
00000310: 8193 703d 4d6c 75be 8a8a cb3c 3a73 d3bc
00000320: c066 3cbe f8d3 4fbe 284e 4d3e b9bf 58be
00000330: 23e9 16be a159 b23d 307f eabc 4d06 9bbe
00000340: 8248 8c3e a40a fcbc 2eda dcbe d52d 713e
00000350: 22ed 343e 52c3 f5be 5e74 883e 3228 343d
00000360: 606a 15be 88ca b33e 14b3 3d3e a180 7fbb
00000370: ff69 5a3d 5b78 e93e 4287 02bf 7370 c2be
00000380: c726 75bd a201 31be 8757 323e dc58 b3be
00000390: 9fa4 6f3e 5101 be3e 43d1 03be 0331 16be
000003a0: ae10 b43d 6c97 c73d 49d4 89be 49c2 23be
000003b0: 8b40 77be 1f5f c83e 2a44 71be edd6 ccbe
000003c0: f2f1 36bd b18c c23e 8c2f 153f e971 c33e
000003d0: 6ef5 373d ce64 83be b730 3a3c 4aa8 363e
000003e0: 9791 61be 4916 abbe d583 9bbd 9091 70be
000003f0: 7c34 f0be a40b 03bf 39fa 063e 751e e1be
0.2501338 -0.05850629 -0.77694666 0.18381473 0.8710025 0.20143217 -0.65491164 0.33121738
0.045525484 -0.48474455 0.2869549 0.13618007 -0.29452977 0.10959448 0.2947237 -0.39263773
0.22308463 0.33125907 -0.2919817 -0.16419859 -0.21628441 -0.38697594 -0.2869118 -0.010249282
-0.23463142 0.28788173 0.39890942 -0.17641932 -0.30214626 0.028560787 0.01559232 0.15032095
0.055440485 -0.28645694 0.015501615 0.353472 0.18674693 0.44322956 -0.04073825 0.0011913828
-0.085037775 -0.5704343 0.36762333 -0.1005296 -0.011623809 0.07735603 -0.46860966 -0.27448642
0.2967212 -0.5504723 -0.49440944 0.733373 0.559456 0.34590387 -0.22600956 -0.6658604
-0.37202603 -0.38312224 0.016122514 0.64556104 0.6319418 0.5538974 -0.18667226 0.16331944
-0.38019377 -0.18064867 0.33323908 -0.13617899 0.16468932 0.23584606 -0.089526035 0.14435436
0.42076918 -0.28048348 -0.68824923 0.26233894 0.36579427 -0.017472327 -0.027397001 0.30513978
0.16304678 -0.2214442 0.18519522 -0.20025639 0.1300491 0.044145085 -0.6319033 0.4101937
0.4807512 -0.42755446 -0.06448281 0.13187408 -0.061992947 -0.05697262 -0.22057122 0.22059907
-0.31471267 0.25733864 -0.05435385 0.01139856 -0.4030365 -0.23009358 -0.4890593 -0.08746087
-0.31870046 -0.2873663 -0.10815208 -0.05677088 -0.105013706 -0.19576629 -0.103759274 -0.22087327
-0.36568812 -0.3136492 0.30526292 0.104451545 -0.2931412 0.2723187 -0.0898441 -0.46423888
-0.22511551 -0.17844078 -0.2759397 0.4541426 0.11274907 0.50402135 -0.24514009 -0.2587659
0.09514078 0.5185558 0.49323744 0.4155917 -0.25447887 -0.32973987 -0.4762961 -0.46769723
-0.55096185 -0.35325226 -0.01848976 0.2174246 0.22176866 -0.016377516 0.3703477 0.16728382
-0.5283198 0.17173548 0.4502662 -0.6363033 0.27516592 0.37267354 -0.45040458 0.20699584
0.022526627 -0.6439442 0.48750114 0.4400071 0.03138278 1.0012116 -0.40576026 0.55348605
0.40168044 -0.83826363 0.82334644 0.4627852 0.60922587 -0.18156843 0.37076375 -0.03103956
-0.8472643 -0.9844082 -0.21009262 0.121200845 0.01705463 -0.012332274 -0.21705666 -0.15308185
-0.31859186 -0.26882648 -0.2611762 0.16244063 0.6761043 0.62121344 -0.30237114 0.45519155
-0.50990516 -0.56396544 -0.17026928 -0.426755 -0.11229499 0.2740241 0.04607028 -0.37476584
0.42743093 -0.25193897 -0.21175027 0.1913087 0.05873442 -0.23967095 0.024846334 -0.02581178
-0.18398571 -0.20295703 0.20049345 -0.21166886 -0.14737372 0.087085016 -0.0286251 -0.30278245
0.2739907 -0.030766793 -0.43135208 0.2355264 0.17668584 -0.4800058 0.2665128 0.043983646
-0.1459136 0.35115457 0.18525344 -0.003898658 0.053323742 0.45599636 -0.5098764 -0.37976417
-0.059851434 -0.17285779 0.17416202 -0.35028732 0.23402642 0.3711038 -0.12872796 -0.14667134
0.08792244 0.09745678 -0.26919773 -0.15992083 -0.24145715 0.39135072 -0.23561159 -0.40007725
-0.04466433 0.37997964 0.58275676 0.38172844 0.044911794 -0.25662845 0.011364154 0.17837635
-0.22028194 -0.3341544 -0.07593504 -0.23493028 -0.46915042 -0.5118964 0.1318139 -0.4396855

bias f4 [32]
00000000: 2297 9abe ac46 96bd be00 453e b6f2 efbd
00000010: 97fe 76be 1ba3 46be f899 d4bd ceeb f3bd
00000020: fc06 a2be 2dae 1dbd d020 a2be 5f33 023f
00000030: 7e4b 983e 9e1b cabd 1232 84bb deef 433d
00000040: 8e24 07bd ccfd 14bf a1c1 debd 265d 0dbe
00000050: 2e6f 08bc 8b62 0abd e18f aabd 2d3e 483d
00000060: 1665 25bd 8cab 03be 7b2e 65bc 4e55 e5bb
00000070: 501d 7abe 0c07 d3bd 5b67 47be 9906 3a3d
-0.3019343 -0.07337698 0.19238564 -0.11716215 -0.24120556 -0.19398157 -0.1038093 -0.119102105
-0.31645954 -0.038496185 -0.3166566 0.50859636 0.29745096 -0.09868549 -0.004034289 0.047836177
-0.032993846 -0.58199763 -0.108767755 -0.13805065 -0.008327289 -0.033785384 -0.08328224 0.04888742
-0.040379606 -0.12858409 -0.013988133 -0.0069986945 -0.24425244 -0.103040785 -0.1947302 0.04541645

weight f4 [64, 32, 3, 3]
00000000: 1c95 12bd 7bdb cc3d 0bb3 653d b76c 5c3b
00000010: fd87 8abd ab52 c1bd 0e18 bd3b 9901 813d
00000020: dc79 d4bc 2261 95bd 4e60 ac3d 4e5a 2d3e
00000030: bf93 a5bd 401e 59bd 587c a1bd 1a78 c33c
00000040: 1abc de3c 889d dfbc dd98 5c3c e1f3 84bd
00000050: fcb7 9cbd 05aa e939 52d6 41bd c744 2c3c
00000060: ce11 84bd 9e1c ba3c 878a 883c d6b4 203d
00000070: c50a f4ba 86ba bc3b ab67 6c3d 3d28 99bd
00000080: 63f5 023c 7ad2 8bbc 9b26 eebc 6fec 713d
00000090: 1d1a 23bd d9f8 4ebd ff79 edbb 7f2b aebd
000000a0: 329a 64ba d721 67bd 0250 53bc 046d 77bc
000000b0: cdc5 3f3c 216c 6e3c ba53 a1bd 385a fabd
000000c0: 4921 db3d 2682 323e eb28 d53c 6e98 f53c
000000d0: 7031 4f3d 715a b1bb 93bc 90bd 7105 0bbd
000000e0: 6806 1fbd 8d0b 133d 0038 e7bc 483a 11bd
000000f0: eb85 ccba 3b79 a53d ad59 ea3c 69a6 8fbd
00000100: e5f3 893c c8a3 403c 1fbf babc 3eb5 903d
00000110: 8349 eb3b b43b c03c 3d9b d83b 46e3 08bb
00000120: 5469 cbbc a8e4 48bc f18d 673c 4c6b 98bd
00000130: 4e38 9d3c a66d a5bc 1ea6 193c 11a2 cb3c
00000140: a416 dcbc 684c 9fbd adc0 68bd 7278 16bd
00000150: 8bfa 513d e46a 4fbc 6d0b 9fbd db8d 323c
00000160: b0cf c33c 41c0 d93c ecfc 973c 203b 233d
00000170: cf6f 17bd bfd3 f7bb a1cb 22bd 4f54 66bd
00000180: b90f 0ebb c476 14bd 4ec4 bd3c 721e da3b
00000190: d8be d9bd d11e eabd d033 76bd 4031 43bc
000001a0: f58b c3bd 76c3 2e3a b473 8abd e662 61bd
000001b0: 8c3d 273d 60ac 6ebd 756c e1bd edf0 eebc
000001c0: 66af 46bd 503a 1cbc f449 a4bc 5f58 29ba
000001d0: 6e55 b1bd e8a8 18bd ae50 afbd c853 8dbd
000001e0: 4888 853c ca25 553c 83f8 c1bc 4a98 fbbc
000001f0: 31d1 f63b 14a0 b53c 3927 153d 1ac3 b73c
00000200: 6056 5f3d ffa5 5fbd feb4 7dbd 8030 f13c
00000210: 616e b83c 9136 4ebc 4dbf c7bd 2be8 a8bd
00000220: 7139 32bd 88b6 a1bc e856 263d 80a3 73bd
00000230: ec3a c6bd 37f2 08bd 2387 4b3c a3b1 a43d
00000240: c4d0 87bb 5e70 103e e2d4 803d f650 e7bc
00000250: 07ed a7bd fadd 4ebd d9a4 aebc cd5e 94bd
00000260: 34ea 2abd 6040 a8bd b33f 4cbc a059 883d
00000270: 9fe5 3abd e63d 07be 711e 08be 8719 01bd
00000280: 7c34 4cbc ff2b 093d d3ef a3bb acbf 323d
00000290: 3768 0e3e caa9 a0bd feb7 b83d 2576 ba3d
000002a0: 0805 ecbd 0e2f 9dbc dc05 82bd 4db4 1a3d
000002b0: f624 5a3d 17a4 c8bc 7d5b 35bd 9f11 9cbc
000002c0: d1ff 57bd 54cc 353d ada0 333c b91f d93c
000002d0: e92e 0cbe c971 12bd 46ed 17bd 58fa dcbd
000002e0: bbbb 80bd 3558 0bbd 4221 b2bd 043d ddbd
000002f0: 32ba afbd 2b41 d8bd da56 cd3b 97e4 6ebd
00000300: 9c32 253c 14bb adb8 6d11 50bd 6a1f 11bd
00000310: 3f29 843c 0075 a5bd 5e56 253d 9219 703c
00000320: 2e83 ab3c c19b 403c a17f 5e3d 729d a93c
00000330: 27a8 dfbc e55e 373d bc97 60bc b651 20bc
00000340: b5b9 743c fd32 b6bc 40f9 36bd 1c5f cabc
00000350: 89d4 54bd dae1 99bd 445d 8ebc 46fa 23bd
00000360: f367 b3bc bd17 8f3d 0789 bc3d 0024 67bc
00000370: 6416 983c 5434 823d 5956 083d 58b7 e4bc
00000380: bef7 b6bd cb68 aabd 00fd 0d3d 71b2 ba3d
00000390: 3587 563d b2f3 1ebd 274c 2abc 18fb 363d
000003a0: b9e2 2abd 89f1 e13c b680 babd 2dff 95bd
000003b0: 8c63 8dbc d4af f33d f9eb 1d3c 2462 73bc
000003c0: e25c 433d 5efc d93d 6d04 863d 3089 6dbb
000003d0: b262 2e3a 228f 0fbd d007 75bc f445 dbbc
000003e0: 5f4c 603c 8b87 8c3c 0618 023d cf1b 48bd
000003f0: dbf6 13bd 8fb9 ebbc 700a 713d cb41 1a3d
-0.035786733 0.100028 0.05607895 0.0033634135 -0.06764219 -0.09439596 0.00577069 0.06299133
-0.025937013 -0.07293917 0.08416806 0.1692898 -0.08084821 -0.053007364 -0.07885045 0.02386098
0.027189303 -0.027296796 0.01346418 -0.06491829 -0.0765228 0.00044567898 -0.047323532 0.010514445
-0.064487085 0.022718724 0.016667617 0.03923496 -0.0018618932 0.00575954 0.057716053 -0.07478378
0.007993075 -0.017068136 -0.029071143 0.05906337 -0.039819825 -0.05053029 -0.007247209 -0.0850439
-0.00087204867 -0.056428757 -0.012897493 -0.015101675 0.011704874 0.014552147 -0.07877298 -0.12224239
0.10699708 0.1743246 0.026020488 0.02997991 0.050584257 -0.005412393 -0.07067218 -0.033940736
-0.03882447 0.035899688 -0.028224945 -0.035455972 -0.0015603876 0.080797635 0.028607214 -0.07014162
0.01683993 0.0117577985 -0.022796212 0.07065819 0.007180394 0.023465969 0.0066103027 -0.0020887419
-0.024830498 -0.012261547 0.014132963 -0.0744234 0.019191887 -0.020193886 0.009377984 0.024857553
-0.026866265 -0.07778245 -0.056824375 -0.03673596 0.051264327 -0.012659762 -0.07765851 0.010898079
0.023902744 0.026580932 0.01855322 0.039851308 -0.036971863 -0.007563084 -0.039744977 -0.056232747
-0.0021676852 -0.036246076 0.023164894 0.0066564614 -0.10632104 -0.11431659 -0.060108006 -0.011913598
-0.09548179 0.0006666699 -0.0676035 -0.055025958 0.04083018 -0.05826986 -0.11007015 -0.029167617
-0.048507117 -0.009535387 -0.020054795 -0.00064600067 -0.086588725 -0.037270457 -0.0856031 -0.06900746
0.016300336 0.013009498 -0.02367807 -0.030712266 0.007532262 0.022171058 0.03641436 0.022431899
0.054525733 -0.054601666 -0.061940186 0.029442072 0.02251357 -0.012586252 -0.097532846 -0.082474075
-0.04351181 -0.019740358 0.040610224 -0.059482098 -0.09679207 -0.03343412 0.012422356 0.08041694
-0.00414476 0.14105365 0.06290604 -0.028236847 -0.08199506 -0.050504662 -0.02131884 -0.07244644
-0.04172726 -0.082154036 -0.012466359 0.066577196 -0.04562914 -0.13207206 -0.13292862 -0.031518485
-0.012463685 0.033489224 -0.0050029545 0.043639824 0.13906942 -0.07844885 0.09019469 0.091045655
-0.11524397 -0.019187476 -0.06348774 0.037769604 0.053257905 -0.024492307 -0.044276703 -0.019051371
-0.0527342 0.044384316 0.010963601 0.026504384 -0.1368977 -0.035753045 -0.037091516 -0.10789937
-0.06285807 -0.034019668 -0.0869775 -0.108026534 -0.08580436 -0.10559305 0.006266457 -0.05832347
0.010082867 -8.284129e-05 -0.05079787 -0.03543035 0.016132949 -0.080789566 0.04036557 0.014654534
0.020936575 0.011755885 0.054320935 0.020704959 -0.027301861 0.044768233 -0.013708051 -0.009785106
0.014936854 -0.02224111 -0.044671297 -0.024703555 -0.0519605 -0.07513781 -0.017378457 -0.0400336
-0.021900153 0.069869496 0.092058234 -0.014107704 0.018565364 0.06357637 0.033285473 -0.027919456
-0.08933972 -0.08320769 0.034665108 0.09116066 0.052375037 -0.038806625 -0.010394133 0.044673055
-0.041720126 0.027580993 -0.09106581 -0.073240615 -0.017259382 0.11898771 0.00963878 -0.0148549415
0.047696 0.10643838 0.06543813 -0.00362451 0.000665228 -0.03504861 -0.014955476 -0.026766755
0.013690083 0.017154476 0.03176119 -0.048854645 -0.03612409 -0.028775005 0.058847845 0.0376604

bias f4 [64]
00000000: d0b8 0dbd 059c 2d3c 44b9 cd3c 86cc c6bc
00000010: 3cf7 69bd 37cd d4bc fa0c a9bd 2de9 4dbe
00000020: 5e9e 27bd 4f52 53be e73d f6bc f5d8 3ebd
00000030: e592 4ebc d205 b7bd ea76 f1bd 2581 80bd
00000040: 5d51 87bd ab6e bebc 243e b6bd 9ae8 7bbd
00000050: 4cef a9bd cd10 36bd d5ef 06bd 3737 4cbd
00000060: 690d 9fbd 95df 31bd ba64 86bd 286f 96bd
00000070: e6c0 16be fff4 ffbb 0e94 6ebd e083 dfbd
00000080: 0eb5 d3bd ccd6 79be 6999 6dbd 0115 5bbd
00000090: ba52 acbd 59cd e4bb 8a0f fbbc 5aa5 bcbc
000000a0: 8a58 a5bc e19f 31bd 20ee 43be dd3b 28bd
000000b0: 9e46 3cbd 3981 5cbd 130c 2f3d bf8a bebb
000000c0: f365 f0bc ee8c 2fbe 3485 e4bc 690a 8fba
000000d0: 8a18 4dbd 6ef5 23be 2166 1ebd 093a e0bc
000000e0: b86c e4bc 7446 4bbe cc8d 973b 7846 55bd
000000f0: 9a1d d2bc 2b30 7cbe 9eeb 0abd 7390 d0bc
-0.03460008 0.01059628 0.025112756 -0.024267446 -0.057120547 -0.02597676 -0.08254428 -0.20108481
-0.040922515 -0.20636867 -0.030058814 -0.046593625 -0.012608265 -0.08936657 -0.11790259 -0.06274632
-0.06607316 -0.02324613 -0.08898571 -0.061501123 -0.082975954 -0.044449616 -0.032943565 -0.049857344
-0.0776623 -0.043426115 -0.06562181 -0.0734542 -0.14722022 -0.007811188 -0.058246665 -0.10913825
-0.10337268 -0.24398345 -0.05800763 -0.053486828 -0.08414216 -0.006982487 -0.030647058 -0.023028065
-0.02018382 -0.043365363 -0.19133806 -0.041072715 -0.045965783 -0.053834174 0.042736124 -0.0058148797
-0.029345488 -0.17143604 -0.027895547 -0.0010913137 -0.05007223 -0.16011593 -0.038671616 -0.027371423
-0.027883872 -0.19851094 0.004625058 -0.052069157 -0.02564888 -0.2462775 -0.03391611 -0.025459504

weight f4 [128, 1600]
00000000: bb0c acbc bfeb 69bc 93da 173d cc48 063d
00000010: ec91 043d 4881 083c cdfa 9dbc 5c29 a5bc
00000020: 11ab 0e3c 18b2 c03b e83d 31bd 604e 1ebd
00000030: 7a43 2c3c 0fbe a5ba 3f02 ea3c d3be adb9
00000040: c3db 623d 01ba 6c3d 6831 ae3c f419 5a3c
00000050: be9f 87bb ef5e a23c 4410 de3c 7520 1f3c
00000060: 7102 89bb 9520 8cbc fd14 b63a efea 63ba
00000070: 5206 9c3c 1e0a b2bc 99ac b1bc 868f efbb
00000080: ebe5 193c 9a47 d03c 553a 2d3b e122 a2bb
00000090: 5243 23bd 3bf9 523c 2bc3 143d d6c0 a23c
000000a0: b11c bcbc e333 bcbc 0f4d 593a e87d b2bc
000000b0: 5838 b5bb a064 733c 1792 babc a495 a13c
000000c0: ae69 8a3a bcb5 0ebd 7b46 f2bb 75a6 c53a
000000d0: 1d92 c43c 07ab 9fbc 5b27 e83b ccc6 78bc
000000e0: 0aa1 5bbc f83a 943c 2ddf 90bb 1cbe cfbb
000000f0: 45fb e3bb 71d7 8dbc 1d5d 3ebc c874 9f3b
00000100: f228 8abc 5219 75bc 0e09 2cbb f148 edbc
00000110: fa63 2bbc dd6b b5bc 8f70 af3c e8fa 6abc
00000120: 3fba 933b e8c5 26bb d800 01bd b441 02bd
00000130: bc7b 8ebc 3957 d0bc 2642 84bd 04a9 863c
00000140: 8729 d33b df55 c7bb e6b5 55bc 0b3e 40bd
00000150: fc98 f33b cc2b ba3b 75d3 0b3d 0b93 513c
00000160: b4c6 82bc 35c6 dbbc ca79 ca3b 96e3 60bd
00000170: 0af5 ed3c 4883 ba38 f5ef 3cbb 538b ca3c
00000180: d81b 11bd 9b77 bcb8 bf3d 543b 932a 91bc
00000190: 6cf8 323d 3e21 a13c a24c 6b3d 2d7c b53d
000001a0: d548 4c3d 7f5f 9ebc 9f24 13bd 3eb1 283d
000001b0: 4470 0c3d 6cdd 89bc 87fb 38bd c49e 81bd
000001c0: 353b d8bc e983 dfbc 0aee 05bd 1a58 dcbc
000001d0: bdff 8a3b 0d4b f13c b2d6 fa3b a05b 06bd
000001e0: 68d6 213d cbd8 d43d 40fd 983d 4180 a13b
000001f0: 556c 7cbd c14f 83bc 7c79 7a3a ae32 033d
00000200: 271c 6d3c a65e 03bd 70ea f7bc b646 fa3b
00000210: db02 e43c 3586 113c ae59 e5b9 69ba 2dbd
00000220: 3319 75bc 62d6 e73c ecfe e03c 060f 0c3b
00000230: 7e56 9bbc c130 803d 2c71 3dbc 7775 afbc
00000240: aac9 f3bc 48d7 653c 56d8 ba3c f0bb 97bc
00000250: e92a ba38 7ccd 06bd d7c6 86bc 3e76 7fbb
00000260: a377 e9bc daab 363c d3ae 703c 2990 5a3c
00000270: 7940 b03c b8f5 0d3d 33e7 1f3c 11c0 a13c
00000280: 6524 04bc edf6 d43c 7cd6 9f3c d30e 633b
00000290: 35fe 4fbc 1198 edbb 5f2a 02bd 2747 20bc
000002a0: a1ed c6bc 0888 6fbc 0d9d 703b 8124 bfbc
000002b0: 8284 90bc b8e0 223c b257 28bd aa93 8a3b
000002c0: 2ec5 ad3c 6c9d f13c 2e50 d73d 8506 143c
000002d0: bfde 60ba 8c9f 933c d359 e83c cd54 3c3d
000002e0: 065a f33c e903 893c b115 a5bc 19ae 563b
000002f0: ccce 9e3c 940c debc 9c21 08bc 5128 d9bc
00000300: 8837 30bd 39b3 1ebd 29c6 8d3c ff18 3a3a
00000310: 181c 98bc cf46 d6bd 9bbc c4bc 6c6c b93b
00000320: 25aa ef3b d6a5 79bc fbc9 a63b 3f22 f53b
00000330: 4f87 d13b 9142 e93b 4c25 b73c 9d5b 33bd
00000340: 267e 2fbd c4a2 3ebd 1c61 5fbc 3c5e 06bc
00000350: 211e ab3c 331c 01bd 376e e03b 7213 d73c
00000360: e17d 3e3d 1252 273d b656 fc3c 7d17 efbc
00000370: 87ca bd3c 64c3 e33c 239d 7d3c aa3d 953c
00000380: 1481 44bd 3e05 d3bc 6354 023d 8186 483d
00000390: 19a6 543d c2d3 793c b99a 52bc 3600 9a3b
000003a0: 3351 41bd 18ce 3b3d 145a d13c d7e8 f1bb
000003b0: 6dac c8bc 391d a5bd 4685 2a3c 3af4 2fbc
000003c0: 10bf 023c e10d c4bc 223c d0bc 0f3a 65bd
000003d0: 94b6 f1bd 8320 693c e273 dbbc 67bc c7bc
000003e0: 46bd 85bd a5d5 6bbd 8df0 45bc 1858 22bc
000003f0: e101 0ebd 7ac2 03bc dab9 163c cf57 3e3b
-0.021002164 -0.014277398 0.037073683 0.03278427 0.032365724 0.008331604 -0.01928463 -0.020161323
0.008707778 0.0058806054 -0.04327193 -0.038648963 0.010514135 -0.0012645143 0.028565524 -0.00033139306
0.055385362 0.057794575 0.021263793 0.013311852 -0.004138916 0.019820658 0.027107365 0.009712328
-0.0041811992 -0.01710538 0.0013891753 -0.00086943706 0.019045983 -0.02173334 -0.021688746 -0.0073108105
0.009393196 0.025424767 0.0026432474 -0.0049480055 -0.039859124 0.012876804 0.03631894 0.019867342
-0.0229629 -0.02297396 0.00082893757 -0.021788552 -0.0055303983 0.014855534 -0.02277474 0.019724675
0.001056006 -0.034841284 -0.007393656 0.0015079515 0.023995453 -0.019490732 0.0070847697 -0.015184116
-0.013405094 0.018094525 -0.004421136 -0.0063398015 -0.006957444 -0.017314645 -0.01161888 0.0048662163
-0.016865227 -0.01495965 -0.0026250514 -0.028965445 -0.010460848 -0.02214616 0.021415977 -0.014342047
0.0045082862 -0.002544755 -0.031494945 -0.03180094 -0.017392986 -0.025432216 -0.06457929 0.016438015
0.0064441594 -0.0060832347 -0.013043856 -0.04693417 0.0074340086 0.0056814905 0.034137208 0.012791405
-0.01596389 -0.02682791 0.006179069 -0.054904543 0.029047508 8.893624e-05 -0.002882955 0.024724638
-0.035426944 -8.986817e-05 0.0032385436 -0.017720496 0.043693945 0.019669171 0.05744613 0.08861575
0.049874146 -0.019332645 -0.035923596 0.041184656 0.034286752 -0.016829215 -0.04516175 -0.0632911
-0.02639542 -0.02728458 -0.032697715 -0.026897479 0.004241912 0.029454732 0.007654988 -0.032802224
0.039511114 0.103929125 0.074701786 0.004928619 -0.06162675 -0.01602924 0.0009554846 0.032030754
0.014472044 -0.032072686 -0.030263156 0.007637824 0.027833393 0.008882095 -0.000437451 -0.042414103
-0.014959621 0.028300468 0.027465306 0.002137126 -0.018962141 0.06259299 -0.011562627 -0.021418316
-0.029759247 0.014028378 0.022808235 -0.018522233 8.877164e-05 -0.03291081 -0.016452236 -0.003898039
-0.02849943 0.011149371 0.014690119 0.0133400345 0.021515118 0.034658164 0.009759712 0.019744905
-0.008065318 0.02599665 0.019511454 0.0034646287 -0.012694885 -0.0072507937 -0.03177869 -0.009782589
-0.024283232 -0.014619835 0.0036714703 -0.023332836 -0.01764131 0.009941272 -0.041099258 0.0042290287
0.021212187 0.02949401 0.1051334 0.0090347575 -0.00085781136 0.018020414 0.028363144 0.04597931
0.029706012 0.016725497 -0.020151945 0.003275758 0.019385718 -0.027105607 -0.008308794 -0.026508482
-0.04302171 -0.03874514 0.017306404 0.00070990616 -0.018568084 -0.104627244 -0.024015715 0.005658677
0.007313984 -0.015237292 0.005089996 0.007480889 0.006394304 0.007118531 0.022356652 -0.04378854
-0.042844914 -0.046541944 -0.0136339925 -0.008201178 0.02088839 -0.031521033 0.006849076 0.02625439
0.046506766 0.040849753 0.030803066 -0.029186005 0.023167862 0.02780313 0.015479359 0.01821788
-0.04797466 -0.025759336 0.03181876 0.048956398 0.051916216 0.015248241 -0.012854272 0.004699732
-0.04719658 0.045850843 0.025555648 -0.007382493 -0.024496282 -0.080622144 0.010407751 -0.0107393805
0.007980123 -0.0239324 -0.025419299 -0.055963572 -0.11802402 0.014228943 -0.026788656 -0.02438183
-0.06530242 -0.057576794 -0.012081278 -0.0099086985 -0.03466976 -0.008041972 0.009199584 0.0029044037

bias f4 [128]
00000000: f93a 8fbd 2ccd 883d b31b 02bd 56d8 1cbc
00000010: 2e84 37bd c14a 20bd a2df d3bc 20f1 1ebd
00000020: 3510 823c 9939 343d 5ae5 68bc d686 8eb7
00000030: 8d2a 283d 1918 ff3c c1a1 11bd d756 6cbd
00000040: ce5f 27bd 3f79 c4bc 6025 4bbd 97d5 bbbc
00000050: a9bb 06bc 1508 073d 9014 05ba 3c43 7dbd
00000060: c438 61bb e8f0 22bc 08c6 1e3d 7b9c cc3c
00000070: f103 abbc 458d 7fbc 9bb8 8d3c 6f60 943d
00000080: 6e09 27bd 748d 1fbd d8ef fdbc 613d 77bd
00000090: e65f c23c 7be5 303d ff90 063d 1512 cb3c
000000a0: 66f1 0e3d 2e2c a9bb 707d 14bc 0c59 c43d
000000b0: 0200 8a3a bac9 b0bc 7ed4 01bd 4e22 223d
000000c0: 7f49 5a3d 26d0 303d 1986 b03c 6561 5dbb
000000d0: 4c9c 8ebd ab56 2b3d ecd9 813c 8cbc b23c
000000e0: b54f 073d ccb2 c9bc 4d49 ed3c cc43 41bb
000000f0: 1cc5 583d 1b9a 40ba 7e3d dd3c b40c 53bc
00000100: f8ba 033c 452a 88bd 25b8 2fbd 36aa 5e3c
00000110: a9fc babc 2a2b 333b f3ea 373d 31ae 81bd
00000120: c12c a0bd 86a9 933d 0057 203b b4e0 aebd
00000130: 1f3a 7a3d 82f2 33bd b4f1 90bd 9466 5b3d
00000140: 3f2e 803d 125a 1f3a 4d43 db3c 129d e13c
00000150: d83b e13b 1bc7 1c3d 1bf3 40bc 07b3 dc3c
00000160: 2089 05bb b92a 733c 92a7 6c3d 5789 b73c
00000170: 164f ecbc 72da 9c3c 1049 033c c6f7 273d
00000180: e10d 003d 126e 2f3c 35ac 113d 644d c63c
00000190: 7361 20bc cff6 ddbc 878a f9bc ff57 6e3d
000001a0: 2695 4cbc be39 603c 6f23 84bc a9cf 723d
000001b0: b893 07bd 851e 233d 64cb eebb 522f f03c
000001c0: 7d57 ec3c 4e6e 77bd 591d a63c 087c 853b
000001d0: 27db 93bd c5ce 9bbc a4ce 993c 67d6 94bc
000001e0: 8a12 41bd 8505 0e3d 9cd6 98bc 3566 eebc
000001f0: 3cbe 54bd 3a58 fbbc c69d 653c f515 aabc
-0.0699367 0.066797584 -0.031764697 -0.009573063 -0.04480379 -0.03913379 -0.025863472 -0.038804173
0.015876869 0.044000242 -0.014214838 -1.6990507e-05 0.041056205 0.03113942 -0.03555465 -0.057700004
-0.04086285 -0.023983596 -0.04959619 -0.022928996 -0.008223453 0.032966692 -0.00050766114 -0.061831698
-0.003436611 -0.009945132 0.038763076 0.02497696 -0.020875903 -0.015597646 0.01729994 0.07244956
-0.040780477 -0.03895326 -0.030998155 -0.06036127 0.023727369 0.0431876 0.032853123 0.024788896
0.034898184 -0.0051627373 -0.00906311 0.09587297 0.0010528567 -0.021580566 -0.03169679 0.039583497
0.053292748 0.043167256 0.021548318 -0.0033779975 -0.06963405 0.0418307 0.015850984 0.021818422
0.033035 -0.02462139 0.028965617 -0.0029489873 0.052922353 -0.0007347182 0.02700686 -0.012881447
0.008040182 -0.06648687 -0.042900223 0.013590386 -0.022825556 0.002733896 0.0449018 -0.063320525
-0.07821036 0.072100684 0.0024465919 -0.085389525 0.061090585 -0.043932445 -0.07077351 0.053564623
0.06258821 0.000607879 0.02676549 0.027540717 0.006873589 0.03827582 -0.011776711 0.026940836
-0.0020375922 0.014841729 0.057776995 0.022404356 -0.028846305 0.019147132 0.008013025 0.04100778
0.031263236 0.010707395 0.03556462 0.024206825 -0.009788859 -0.027095227 -0.030461563 0.05818939
-0.012486732 0.013685642 -0.016130177 0.05928007 -0.03309986 0.039824028 -0.0072874296 0.02931944
0.028850311 -0.06040793 0.020277666 0.0040736236 -0.07219534 -0.019019494 0.018775292 -0.018168641
-0.04713682 0.034673233 -0.018657021 -0.02910147 -0.051939234 -0.030681718 0.014014667 -0.020762423

weight f4 [10, 128]
00000000: 0d4e 4b3e 41aa 1ebe e21c 173e c2cb dfbd
00000010: 87f2 a1be fc32 3fbe 0e52 e8bd 90fa 7fbe
00000020: 1823 acbd 2bac 3c3d 979b 4cbe 588e 5cbe
00000030: cfa7 44be 4393 37be 9b2c 7b3e ebfc acbe
00000040: 3e7d 5abe 30b8 183d e66b 3cbe 1773 b1bd
00000050: de5f 1abd 173f 313e 0ba3 053e cecf 2e3d
00000060: 9df2 a03e 10d7 8bbe 1948 48be b3c5 72be
00000070: 46bc 54be 201f 93bd 322d 9a3b 79c4 43be
00000080: a456 13be 9231 323e 3a5b c53c 32a6 86be
00000090: b0f7 0dbe 36f6 45be 2f2d 42be c909 81be
000000a0: b797 14bd c339 5f3e a11c 0c3e 841a 9c3d
000000b0: 9208 f2bd d892 2b3e 7d23 8e3e 67e8 61be
000000c0: c28a fbbd b375 ba3d 1f5a 1d3e 1ab6 21be
000000d0: 30fc 44be 1e7e 3a3e b46f a03e bea4 25be
000000e0: eed8 8ebe fd71 9bbe 92d6 673e db08 4bbe
000000f0: 83a6 3f3e 77e3 80be b41e 2fbe 5c47 77be
00000100: 00ef 1fbe dc6a 0ebe 9ff8 16be 5a16 05be
00000110: 611f 86be 537f 343c 7797 40be 6b58 efbd
00000120: 61ad 4bbe e690 403e e86a a83c c9be febd
00000130: fed2 da3d 5d24 71ba 9255 443e 2c79 38be
00000140: c884 0c3e 50a8 7bbe 4762 46be baca 933d
00000150: a2fc 6e3e 0ccd 8cbd cfd9 513e c489 253e
00000160: 25bf 7c3e 164d 2bbe 6255 753e 95fd 41bd
00000170: 0ee4 e2bd be38 75be b854 843e fad2 913e
00000180: 7c7c 903c 7de0 a83d 8997 24be feca 3e3e
00000190: cfa1 8abe ca55 92be 5f1b 2fbd adad 893e
000001a0: 040f d2bc 4d48 333c 30b8 04be 7c4d ebbd
000001b0: a000 38be 8261 6ebe 447a 93be 54ee 5abe
000001c0: de13 59be 8b1c fabd a5a1 493e 169a 89be
000001d0: 3258 b7be d8eb 41be 3a82 9fbd d05d 86be
000001e0: e517 213d 2507 333e 3816 303e ba93 843d
000001f0: e0e9 a73d b0f6 eebb dd72 1bbe 485f d53d
00000200: 1ef7 74be 2f5f 523e 4416 94bd 6e89 55bd
00000210: efb7 d43d 6480 fcbd 090b db3c deda 413d
00000220: 2cb6 983e 780a 873e 90f0 4b3e e348 3fbc
00000230: ae11 5d3e 31e5 f83d a74f d7bd 460d 56be
00000240: 2599 0fbe 68ca abbd 88aa 49bd a99c c63d
00000250: 6c69 c03c a985 98bd 3f4f f1bd 188f 08be
00000260: 1279 e4bd b9fa 023e aff6 893e 3a53 3e3e
00000270: 480b 6c3d c111 753d 4ca6 9abd 719e a33e
00000280: c4c8 e73d fe35 a0be d331 6fbd daf3 57be
00000290: 85ac 0c3d 1f95 863e 352f 733e d749 0a3e
000002a0: a2c6 333e 5068 63bd db4a 743d 74b9 543e
000002b0: 3368 bf3a ae9d 9fbe 1e33 5ebe 1162 303e
000002c0: 41b3 8b3e c589 4d3e d61b c83d 48e1 03be
000002d0: 6ec7 91be 926e 083e 56b6 233e 7a62 1b3e
000002e0: 7af9 843e af11 43be 6a18 e1bd df00 7f3e
000002f0: 8fe6 8f3e 67f7 393e 5436 2c3e 455a 0c3d
00000300: a685 2d3e 1ee5 15be 98ca f5bd bcda 5f3e
00000310: 84e7 2a3e a193 2c3e 7375 603e bcc7 0abd
00000320: d6ab 9dbe e3ea a63e 726a 723e ec6b 8ebe
00000330: a4e9 583e 773d 85be 47cd 99be 661b 333e
00000340: 0c78 bc3e f426 023e 31fd 4d3e 430c a43d
00000350: d108 25be 3a8d 613e 7e43 553d 1570 3bbe
00000360: 8fc6 0dbe 99f4 893e 9e05 fe3d 6253 4f3e
00000370: f500 71be 821a 7e3d 6af5 d5bd f062 14be
00000380: cf38 6ebe 4f94 443e 334c a03e 0895 d53d
00000390: 941f 01bc fc24 013e a8af b7be 1282 73bd
000003a0: fa51 2bbe 1257 82bc 8bf8 e5bd 7647 403e
000003b0: 2701 8dbd 1b54 493e 34c5 603e 7583 f43c
000003c0: 7daa c73e 7c97 26be acc7 cf3d cf97 d93d
000003d0: 1da0 13be 518c f7bd 7ead 913e 3d80 89bd
000003e0: 72a0 2dbe f8ab 753e d50b 69be 04b8 bcbd
000003f0: 758e 85be 39c1 0c3e 9b80 ac3d ffdf 64bd
0.19853993 -0.15494634 0.14757112 -0.109275356 -0.31630346 -0.18671793 -0.11343776 -0.24997926
-0.08405131 0.04606263 -0.19981228 -0.21538675 -0.19204639 -0.1792727 0.24528734 -0.3378671
-0.21336839 0.03728503 -0.18400535 -0.0866453 -0.037689082 0.17309223 0.13050477 0.042678647
0.314351 -0.27312517 -0.19558753 -0.23708229 -0.20774946 -0.07183671 0.0047050947 -0.19117917
-0.1438852 0.17401722 0.024091352 -0.26298672 -0.13864017 -0.19332203 -0.18962549 -0.25202778
-0.0362775 0.21799378 0.13682796 0.07622245 -0.11818041 0.16755235 0.2776145 -0.2206131
-0.12282325 0.091044806 0.1536641 -0.15792122 -0.19236827 0.18212172 0.31335223 -0.16176125
-0.2789988 -0.30360404 0.22640446 -0.19827597 0.18715863 -0.25173542 -0.17101556 -0.24148315
-0.15618515 -0.13907951 -0.14743279 -0.12996808 -0.26195815 0.011016685 -0.18807779 -0.11686786
-0.19890358 0.18805274 0.02055879 -0.12438733 0.10684775 -0.0009198839 0.19173267 -0.18014973
0.13722527 -0.24575925 -0.19373427 0.072164014 0.2333856 -0.06875047 0.20493244 0.16165835
0.24682291 -0.16728625 0.23958352 -0.047360975 -0.11078654 -0.23947427 0.25845885 0.28481275
0.017637484 0.08245943 -0.16073431 0.18632123 -0.27076575 -0.28581077 -0.042750712 0.26890317
-0.025641926 0.010942531 -0.12960887 -0.11489388 -0.17968988 -0.23279384 -0.2880422 -0.21379977
-0.21198985 -0.122124754 0.19690569 -0.2687537 -0.35809475 -0.18937624 -0.077885106 -0.26243448
0.03932943 0.17483194 0.17195976 0.06473489 0.08198905 -0.007292591 -0.15180536 0.10418564
-0.23922393 0.20544122 -0.07230809 -0.052133016 0.10386645 -0.12329176 0.02673866 0.04732787
0.29826486 0.26375175 0.19915986 -0.011675092 0.21588776 0.1215309 -0.10513239 -0.20903501
-0.14023264 -0.08388215 -0.049234897 0.09697849 0.023487769 -0.07447369 -0.11782693 -0.13335836
-0.11155905 0.12790956 0.26946017 0.18586436 0.057627946 0.059831385 -0.0755125 0.3195682
0.1131759 -0.31291193 -0.058397125 -0.21089116 0.034344215 0.26285645 0.23748477 0.1350473
0.17556241 -0.055519402 0.0596417 0.2077387 0.0014603197 -0.31174988 -0.21699187 0.1722491
0.27285197 0.20072086 0.09770934 -0.12878907 -0.28472465 0.13323429 0.15987524 0.15174285
0.25971586 -0.19049715 -0.10990985 0.24902676 0.2810559 0.18160783 0.168176 0.034265775
0.16945514 -0.14638183 -0.12001532 0.21860784 0.16689879 0.16853191 0.21919803 -0.033881888
-0.30795163 0.3260108 0.23673418 -0.27816713 0.21182877 -0.26023456 -0.30039427 0.1749092
0.36810338 0.12710172 0.20116116 0.08010151 -0.16116644 0.2202653 0.05206632 -0.18304475
-0.13845275 0.26944426 0.12403415 0.20246652 -0.23535521 0.062037 -0.104472 -0.14490867
-0.23263858 0.191972 0.31308135 0.10428816 -0.007881064 0.12611765 -0.35876203 -0.059450217
-0.1673049 -0.015910659 -0.112290464 0.1877726 -0.068849854 0.1966099 0.21950227 0.02984784
0.3899726 -0.16268724 0.10145506 0.10624658 -0.14416547 -0.1208731 0.28452677 -0.06713913
-0.16955736 0.23991382 -0.2275842 -0.09214786 -0.2608525 0.13745584 0.08422967 -0.05587768

bias f4 [10]
00000000: da46 43bd 9c4c 3a3e 8afd 783c 0c14 abbd
00000010: 3caa 94bd fc5f 90bd 42d1 58be 7c1a 1d3d
00000020: 8c5b 0a3e fca8 ca3c
-0.04767499 0.18193287 0.015197167 -0.08353433 -0.07259032 -0.070495576 -0.21173576 0.038355336
0.13511485 0.024738781
